_________________________________________________________________
Layer (type)                 Output Shape              Param #   
=================================================================
conv2d (Conv2D)              (None, 32, 32, 16)        448       
_________________________________________________________________
conv2d_1 (Conv2D)            (None, 16, 16, 16)        2320      
_________________________________________________________________
conv2d_2 (Conv2D)            (None, 16, 16, 32)        4640      
_________________________________________________________________
conv2d_3 (Conv2D)            (None, 8, 8, 32)          9248      
_________________________________________________________________
dropout (Dropout)            (None, 8, 8, 32)          0         
_________________________________________________________________
flatten (Flatten)            (None, 2048)              0         
_________________________________________________________________
dense (Dense)                (None, 10)                20490     
=================================================================
Total params: 37,146
Trainable params: 37,146
Non-trainable params: 0
_________________________________________________________________
Epoch 1/20
282/282 [==============================] - 14s 50ms/step - loss: 1.8141 - accuracy: 0.3581 - val_loss: 1.5890 - val_accuracy: 0.4467
Epoch 2/20
282/282 [==============================] - 13s 46ms/step - loss: 1.5481 - accuracy: 0.4605 - val_loss: 1.4359 - val_accuracy: 0.5082
…
